{"keras_version": "2.2.4", "config": {"layers": [{"inbound_nodes": [], "config": {"dtype": "float32", "sparse": false, "batch_input_shape": [null, 480, 640, 3], "name": "input_1"}, "class_name": "InputLayer", "name": "input_1"}, {"inbound_nodes": [[["input_1", 0, 0, {}]]], "config": {"strides": [1, 1], "kernel_constraint": null, "data_format": "channels_last", "activation": "linear", "filters": 32, "name": "conv2d_1", "dilation_rate": [1, 1], "padding": "same", "use_bias": true, "kernel_regularizer": null, "activity_regularizer": null, "kernel_size": [3, 3], "kernel_initializer": {"config": {"seed": null, "scale": 2.0, "distribution": "normal", "mode": "fan_in"}, "class_name": "VarianceScaling"}, "bias_constraint": null, "trainable": true, "bias_initializer": {"config": {}, "class_name": "Zeros"}, "bias_regularizer": null}, "class_name": "Conv2D", "name": "conv2d_1"}, {"inbound_nodes": [[["conv2d_1", 0, 0, {}]]], "config": {"trainable": true, "activation": "relu", "name": "activation_1"}, "class_name": "Activation", "name": "activation_1"}, {"inbound_nodes": [[["activation_1", 0, 0, {}]]], "config": {"strides": [1, 1], "kernel_constraint": null, "data_format": "channels_last", "activation": "linear", "filters": 32, "name": "conv2d_2", "dilation_rate": [1, 1], "padding": "same", "use_bias": true, "kernel_regularizer": null, "activity_regularizer": null, "kernel_size": [3, 3], "kernel_initializer": {"config": {"seed": null, "scale": 2.0, "distribution": "normal", "mode": "fan_in"}, "class_name": "VarianceScaling"}, "bias_constraint": null, "trainable": true, "bias_initializer": {"config": {}, "class_name": "Zeros"}, "bias_regularizer": null}, "class_name": "Conv2D", "name": "conv2d_2"}, {"inbound_nodes": [[["conv2d_2", 0, 0, {}]]], "config": {"trainable": true, "activation": "relu", "name": "activation_2"}, "class_name": "Activation", "name": "activation_2"}, {"inbound_nodes": [[["activation_2", 0, 0, {}]]], "config": {"padding": "valid", "strides": [2, 2], "data_format": "channels_last", "name": "max_pooling2d_1", "pool_size": [2, 2], "trainable": true}, "class_name": "MaxPooling2D", "name": "max_pooling2d_1"}, {"inbound_nodes": [[["max_pooling2d_1", 0, 0, {}]]], "config": {"rate": 0.3, "noise_shape": null, "name": "dropout_1", "trainable": true, "seed": null}, "class_name": "Dropout", "name": "dropout_1"}, {"inbound_nodes": [[["dropout_1", 0, 0, {}]]], "config": {"strides": [1, 1], "kernel_constraint": null, "data_format": "channels_last", "activation": "linear", "filters": 64, "name": "conv2d_3", "dilation_rate": [1, 1], "padding": "same", "use_bias": true, "kernel_regularizer": null, "activity_regularizer": null, "kernel_size": [3, 3], "kernel_initializer": {"config": {"seed": null, "scale": 2.0, "distribution": "normal", "mode": "fan_in"}, "class_name": "VarianceScaling"}, "bias_constraint": null, "trainable": true, "bias_initializer": {"config": {}, "class_name": "Zeros"}, "bias_regularizer": null}, "class_name": "Conv2D", "name": "conv2d_3"}, {"inbound_nodes": [[["conv2d_3", 0, 0, {}]]], "config": {"trainable": true, "activation": "relu", "name": "activation_3"}, "class_name": "Activation", "name": "activation_3"}, {"inbound_nodes": [[["activation_3", 0, 0, {}]]], "config": {"strides": [1, 1], "kernel_constraint": null, "data_format": "channels_last", "activation": "linear", "filters": 64, "name": "conv2d_4", "dilation_rate": [1, 1], "padding": "same", "use_bias": true, "kernel_regularizer": null, "activity_regularizer": null, "kernel_size": [3, 3], "kernel_initializer": {"config": {"seed": null, "scale": 2.0, "distribution": "normal", "mode": "fan_in"}, "class_name": "VarianceScaling"}, "bias_constraint": null, "trainable": true, "bias_initializer": {"config": {}, "class_name": "Zeros"}, "bias_regularizer": null}, "class_name": "Conv2D", "name": "conv2d_4"}, {"inbound_nodes": [[["conv2d_4", 0, 0, {}]]], "config": {"trainable": true, "activation": "relu", "name": "activation_4"}, "class_name": "Activation", "name": "activation_4"}, {"inbound_nodes": [[["activation_4", 0, 0, {}]]], "config": {"padding": "valid", "strides": [2, 2], "data_format": "channels_last", "name": "max_pooling2d_2", "pool_size": [2, 2], "trainable": true}, "class_name": "MaxPooling2D", "name": "max_pooling2d_2"}, {"inbound_nodes": [[["max_pooling2d_2", 0, 0, {}]]], "config": {"rate": 0.6, "noise_shape": null, "name": "dropout_2", "trainable": true, "seed": null}, "class_name": "Dropout", "name": "dropout_2"}, {"inbound_nodes": [[["dropout_2", 0, 0, {}]]], "config": {"strides": [1, 1], "kernel_constraint": null, "data_format": "channels_last", "activation": "linear", "filters": 128, "name": "conv2d_5", "dilation_rate": [1, 1], "padding": "same", "use_bias": true, "kernel_regularizer": null, "activity_regularizer": null, "kernel_size": [3, 3], "kernel_initializer": {"config": {"seed": null, "scale": 2.0, "distribution": "normal", "mode": "fan_in"}, "class_name": "VarianceScaling"}, "bias_constraint": null, "trainable": true, "bias_initializer": {"config": {}, "class_name": "Zeros"}, "bias_regularizer": null}, "class_name": "Conv2D", "name": "conv2d_5"}, {"inbound_nodes": [[["conv2d_5", 0, 0, {}]]], "config": {"trainable": true, "activation": "relu", "name": "activation_5"}, "class_name": "Activation", "name": "activation_5"}, {"inbound_nodes": [[["activation_5", 0, 0, {}]]], "config": {"strides": [1, 1], "kernel_constraint": null, "data_format": "channels_last", "activation": "linear", "filters": 128, "name": "conv2d_6", "dilation_rate": [1, 1], "padding": "same", "use_bias": true, "kernel_regularizer": null, "activity_regularizer": null, "kernel_size": [3, 3], "kernel_initializer": {"config": {"seed": null, "scale": 2.0, "distribution": "normal", "mode": "fan_in"}, "class_name": "VarianceScaling"}, "bias_constraint": null, "trainable": true, "bias_initializer": {"config": {}, "class_name": "Zeros"}, "bias_regularizer": null}, "class_name": "Conv2D", "name": "conv2d_6"}, {"inbound_nodes": [[["conv2d_6", 0, 0, {}]]], "config": {"trainable": true, "activation": "relu", "name": "activation_6"}, "class_name": "Activation", "name": "activation_6"}, {"inbound_nodes": [[["activation_6", 0, 0, {}]]], "config": {"padding": "valid", "strides": [2, 2], "data_format": "channels_last", "name": "max_pooling2d_3", "pool_size": [2, 2], "trainable": true}, "class_name": "MaxPooling2D", "name": "max_pooling2d_3"}, {"inbound_nodes": [[["max_pooling2d_3", 0, 0, {}]]], "config": {"rate": 0.6, "noise_shape": null, "name": "dropout_3", "trainable": true, "seed": null}, "class_name": "Dropout", "name": "dropout_3"}, {"inbound_nodes": [[["dropout_3", 0, 0, {}]]], "config": {"strides": [1, 1], "kernel_constraint": null, "data_format": "channels_last", "activation": "linear", "filters": 256, "name": "conv2d_7", "dilation_rate": [1, 1], "padding": "same", "use_bias": true, "kernel_regularizer": null, "activity_regularizer": null, "kernel_size": [3, 3], "kernel_initializer": {"config": {"seed": null, "scale": 2.0, "distribution": "normal", "mode": "fan_in"}, "class_name": "VarianceScaling"}, "bias_constraint": null, "trainable": true, "bias_initializer": {"config": {}, "class_name": "Zeros"}, "bias_regularizer": null}, "class_name": "Conv2D", "name": "conv2d_7"}, {"inbound_nodes": [[["conv2d_7", 0, 0, {}]]], "config": {"trainable": true, "activation": "relu", "name": "activation_7"}, "class_name": "Activation", "name": "activation_7"}, {"inbound_nodes": [[["activation_7", 0, 0, {}]]], "config": {"strides": [1, 1], "kernel_constraint": null, "data_format": "channels_last", "activation": "linear", "filters": 256, "name": "conv2d_8", "dilation_rate": [1, 1], "padding": "same", "use_bias": true, "kernel_regularizer": null, "activity_regularizer": null, "kernel_size": [3, 3], "kernel_initializer": {"config": {"seed": null, "scale": 2.0, "distribution": "normal", "mode": "fan_in"}, "class_name": "VarianceScaling"}, "bias_constraint": null, "trainable": true, "bias_initializer": {"config": {}, "class_name": "Zeros"}, "bias_regularizer": null}, "class_name": "Conv2D", "name": "conv2d_8"}, {"inbound_nodes": [[["conv2d_8", 0, 0, {}]]], "config": {"trainable": true, "activation": "relu", "name": "activation_8"}, "class_name": "Activation", "name": "activation_8"}, {"inbound_nodes": [[["activation_8", 0, 0, {}]]], "config": {"padding": "valid", "strides": [2, 2], "data_format": "channels_last", "name": "max_pooling2d_4", "pool_size": [2, 2], "trainable": true}, "class_name": "MaxPooling2D", "name": "max_pooling2d_4"}, {"inbound_nodes": [[["max_pooling2d_4", 0, 0, {}]]], "config": {"rate": 0.6, "noise_shape": null, "name": "dropout_4", "trainable": true, "seed": null}, "class_name": "Dropout", "name": "dropout_4"}, {"inbound_nodes": [[["dropout_4", 0, 0, {}]]], "config": {"strides": [1, 1], "kernel_constraint": null, "data_format": "channels_last", "activation": "linear", "filters": 512, "name": "conv2d_9", "dilation_rate": [1, 1], "padding": "same", "use_bias": true, "kernel_regularizer": null, "activity_regularizer": null, "kernel_size": [3, 3], "kernel_initializer": {"config": {"seed": null, "scale": 2.0, "distribution": "normal", "mode": "fan_in"}, "class_name": "VarianceScaling"}, "bias_constraint": null, "trainable": true, "bias_initializer": {"config": {}, "class_name": "Zeros"}, "bias_regularizer": null}, "class_name": "Conv2D", "name": "conv2d_9"}, {"inbound_nodes": [[["conv2d_9", 0, 0, {}]]], "config": {"trainable": true, "activation": "relu", "name": "activation_9"}, "class_name": "Activation", "name": "activation_9"}, {"inbound_nodes": [[["activation_9", 0, 0, {}]]], "config": {"strides": [1, 1], "kernel_constraint": null, "data_format": "channels_last", "activation": "linear", "filters": 512, "name": "conv2d_10", "dilation_rate": [1, 1], "padding": "same", "use_bias": true, "kernel_regularizer": null, "activity_regularizer": null, "kernel_size": [3, 3], "kernel_initializer": {"config": {"seed": null, "scale": 2.0, "distribution": "normal", "mode": "fan_in"}, "class_name": "VarianceScaling"}, "bias_constraint": null, "trainable": true, "bias_initializer": {"config": {}, "class_name": "Zeros"}, "bias_regularizer": null}, "class_name": "Conv2D", "name": "conv2d_10"}, {"inbound_nodes": [[["conv2d_10", 0, 0, {}]]], "config": {"trainable": true, "activation": "relu", "name": "activation_10"}, "class_name": "Activation", "name": "activation_10"}, {"inbound_nodes": [[["activation_10", 0, 0, {}]]], "config": {"strides": [2, 2], "kernel_constraint": null, "data_format": "channels_last", "activation": "linear", "filters": 256, "output_padding": null, "dilation_rate": [1, 1], "bias_constraint": null, "padding": "same", "use_bias": true, "name": "conv2d_transpose_1", "activity_regularizer": null, "kernel_size": [3, 3], "kernel_initializer": {"config": {"seed": null, "scale": 1.0, "distribution": "uniform", "mode": "fan_avg"}, "class_name": "VarianceScaling"}, "kernel_regularizer": null, "trainable": true, "bias_initializer": {"config": {}, "class_name": "Zeros"}, "bias_regularizer": null}, "class_name": "Conv2DTranspose", "name": "conv2d_transpose_1"}, {"inbound_nodes": [[["conv2d_transpose_1", 0, 0, {}], ["activation_8", 0, 0, {}]]], "config": {"axis": -1, "trainable": true, "name": "concatenate_1"}, "class_name": "Concatenate", "name": "concatenate_1"}, {"inbound_nodes": [[["concatenate_1", 0, 0, {}]]], "config": {"rate": 0.6, "noise_shape": null, "name": "dropout_5", "trainable": true, "seed": null}, "class_name": "Dropout", "name": "dropout_5"}, {"inbound_nodes": [[["dropout_5", 0, 0, {}]]], "config": {"strides": [1, 1], "kernel_constraint": null, "data_format": "channels_last", "activation": "linear", "filters": 256, "name": "conv2d_11", "dilation_rate": [1, 1], "padding": "same", "use_bias": true, "kernel_regularizer": null, "activity_regularizer": null, "kernel_size": [3, 3], "kernel_initializer": {"config": {"seed": null, "scale": 2.0, "distribution": "normal", "mode": "fan_in"}, "class_name": "VarianceScaling"}, "bias_constraint": null, "trainable": true, "bias_initializer": {"config": {}, "class_name": "Zeros"}, "bias_regularizer": null}, "class_name": "Conv2D", "name": "conv2d_11"}, {"inbound_nodes": [[["conv2d_11", 0, 0, {}]]], "config": {"trainable": true, "activation": "relu", "name": "activation_11"}, "class_name": "Activation", "name": "activation_11"}, {"inbound_nodes": [[["activation_11", 0, 0, {}]]], "config": {"strides": [1, 1], "kernel_constraint": null, "data_format": "channels_last", "activation": "linear", "filters": 256, "name": "conv2d_12", "dilation_rate": [1, 1], "padding": "same", "use_bias": true, "kernel_regularizer": null, "activity_regularizer": null, "kernel_size": [3, 3], "kernel_initializer": {"config": {"seed": null, "scale": 2.0, "distribution": "normal", "mode": "fan_in"}, "class_name": "VarianceScaling"}, "bias_constraint": null, "trainable": true, "bias_initializer": {"config": {}, "class_name": "Zeros"}, "bias_regularizer": null}, "class_name": "Conv2D", "name": "conv2d_12"}, {"inbound_nodes": [[["conv2d_12", 0, 0, {}]]], "config": {"trainable": true, "activation": "relu", "name": "activation_12"}, "class_name": "Activation", "name": "activation_12"}, {"inbound_nodes": [[["activation_12", 0, 0, {}]]], "config": {"strides": [2, 2], "kernel_constraint": null, "data_format": "channels_last", "activation": "linear", "filters": 128, "output_padding": null, "dilation_rate": [1, 1], "bias_constraint": null, "padding": "same", "use_bias": true, "name": "conv2d_transpose_2", "activity_regularizer": null, "kernel_size": [3, 3], "kernel_initializer": {"config": {"seed": null, "scale": 1.0, "distribution": "uniform", "mode": "fan_avg"}, "class_name": "VarianceScaling"}, "kernel_regularizer": null, "trainable": true, "bias_initializer": {"config": {}, "class_name": "Zeros"}, "bias_regularizer": null}, "class_name": "Conv2DTranspose", "name": "conv2d_transpose_2"}, {"inbound_nodes": [[["conv2d_transpose_2", 0, 0, {}], ["activation_6", 0, 0, {}]]], "config": {"axis": -1, "trainable": true, "name": "concatenate_2"}, "class_name": "Concatenate", "name": "concatenate_2"}, {"inbound_nodes": [[["concatenate_2", 0, 0, {}]]], "config": {"rate": 0.6, "noise_shape": null, "name": "dropout_6", "trainable": true, "seed": null}, "class_name": "Dropout", "name": "dropout_6"}, {"inbound_nodes": [[["dropout_6", 0, 0, {}]]], "config": {"strides": [1, 1], "kernel_constraint": null, "data_format": "channels_last", "activation": "linear", "filters": 128, "name": "conv2d_13", "dilation_rate": [1, 1], "padding": "same", "use_bias": true, "kernel_regularizer": null, "activity_regularizer": null, "kernel_size": [3, 3], "kernel_initializer": {"config": {"seed": null, "scale": 2.0, "distribution": "normal", "mode": "fan_in"}, "class_name": "VarianceScaling"}, "bias_constraint": null, "trainable": true, "bias_initializer": {"config": {}, "class_name": "Zeros"}, "bias_regularizer": null}, "class_name": "Conv2D", "name": "conv2d_13"}, {"inbound_nodes": [[["conv2d_13", 0, 0, {}]]], "config": {"trainable": true, "activation": "relu", "name": "activation_13"}, "class_name": "Activation", "name": "activation_13"}, {"inbound_nodes": [[["activation_13", 0, 0, {}]]], "config": {"strides": [1, 1], "kernel_constraint": null, "data_format": "channels_last", "activation": "linear", "filters": 128, "name": "conv2d_14", "dilation_rate": [1, 1], "padding": "same", "use_bias": true, "kernel_regularizer": null, "activity_regularizer": null, "kernel_size": [3, 3], "kernel_initializer": {"config": {"seed": null, "scale": 2.0, "distribution": "normal", "mode": "fan_in"}, "class_name": "VarianceScaling"}, "bias_constraint": null, "trainable": true, "bias_initializer": {"config": {}, "class_name": "Zeros"}, "bias_regularizer": null}, "class_name": "Conv2D", "name": "conv2d_14"}, {"inbound_nodes": [[["conv2d_14", 0, 0, {}]]], "config": {"trainable": true, "activation": "relu", "name": "activation_14"}, "class_name": "Activation", "name": "activation_14"}, {"inbound_nodes": [[["activation_14", 0, 0, {}]]], "config": {"strides": [2, 2], "kernel_constraint": null, "data_format": "channels_last", "activation": "linear", "filters": 64, "output_padding": null, "dilation_rate": [1, 1], "bias_constraint": null, "padding": "same", "use_bias": true, "name": "conv2d_transpose_3", "activity_regularizer": null, "kernel_size": [3, 3], "kernel_initializer": {"config": {"seed": null, "scale": 1.0, "distribution": "uniform", "mode": "fan_avg"}, "class_name": "VarianceScaling"}, "kernel_regularizer": null, "trainable": true, "bias_initializer": {"config": {}, "class_name": "Zeros"}, "bias_regularizer": null}, "class_name": "Conv2DTranspose", "name": "conv2d_transpose_3"}, {"inbound_nodes": [[["conv2d_transpose_3", 0, 0, {}], ["activation_4", 0, 0, {}]]], "config": {"axis": -1, "trainable": true, "name": "concatenate_3"}, "class_name": "Concatenate", "name": "concatenate_3"}, {"inbound_nodes": [[["concatenate_3", 0, 0, {}]]], "config": {"rate": 0.6, "noise_shape": null, "name": "dropout_7", "trainable": true, "seed": null}, "class_name": "Dropout", "name": "dropout_7"}, {"inbound_nodes": [[["dropout_7", 0, 0, {}]]], "config": {"strides": [1, 1], "kernel_constraint": null, "data_format": "channels_last", "activation": "linear", "filters": 64, "name": "conv2d_15", "dilation_rate": [1, 1], "padding": "same", "use_bias": true, "kernel_regularizer": null, "activity_regularizer": null, "kernel_size": [3, 3], "kernel_initializer": {"config": {"seed": null, "scale": 2.0, "distribution": "normal", "mode": "fan_in"}, "class_name": "VarianceScaling"}, "bias_constraint": null, "trainable": true, "bias_initializer": {"config": {}, "class_name": "Zeros"}, "bias_regularizer": null}, "class_name": "Conv2D", "name": "conv2d_15"}, {"inbound_nodes": [[["conv2d_15", 0, 0, {}]]], "config": {"trainable": true, "activation": "relu", "name": "activation_15"}, "class_name": "Activation", "name": "activation_15"}, {"inbound_nodes": [[["activation_15", 0, 0, {}]]], "config": {"strides": [1, 1], "kernel_constraint": null, "data_format": "channels_last", "activation": "linear", "filters": 64, "name": "conv2d_16", "dilation_rate": [1, 1], "padding": "same", "use_bias": true, "kernel_regularizer": null, "activity_regularizer": null, "kernel_size": [3, 3], "kernel_initializer": {"config": {"seed": null, "scale": 2.0, "distribution": "normal", "mode": "fan_in"}, "class_name": "VarianceScaling"}, "bias_constraint": null, "trainable": true, "bias_initializer": {"config": {}, "class_name": "Zeros"}, "bias_regularizer": null}, "class_name": "Conv2D", "name": "conv2d_16"}, {"inbound_nodes": [[["conv2d_16", 0, 0, {}]]], "config": {"trainable": true, "activation": "relu", "name": "activation_16"}, "class_name": "Activation", "name": "activation_16"}, {"inbound_nodes": [[["activation_16", 0, 0, {}]]], "config": {"strides": [2, 2], "kernel_constraint": null, "data_format": "channels_last", "activation": "linear", "filters": 32, "output_padding": null, "dilation_rate": [1, 1], "bias_constraint": null, "padding": "same", "use_bias": true, "name": "conv2d_transpose_4", "activity_regularizer": null, "kernel_size": [3, 3], "kernel_initializer": {"config": {"seed": null, "scale": 1.0, "distribution": "uniform", "mode": "fan_avg"}, "class_name": "VarianceScaling"}, "kernel_regularizer": null, "trainable": true, "bias_initializer": {"config": {}, "class_name": "Zeros"}, "bias_regularizer": null}, "class_name": "Conv2DTranspose", "name": "conv2d_transpose_4"}, {"inbound_nodes": [[["conv2d_transpose_4", 0, 0, {}], ["activation_2", 0, 0, {}]]], "config": {"axis": 3, "trainable": true, "name": "concatenate_4"}, "class_name": "Concatenate", "name": "concatenate_4"}, {"inbound_nodes": [[["concatenate_4", 0, 0, {}]]], "config": {"rate": 0.6, "noise_shape": null, "name": "dropout_8", "trainable": true, "seed": null}, "class_name": "Dropout", "name": "dropout_8"}, {"inbound_nodes": [[["dropout_8", 0, 0, {}]]], "config": {"strides": [1, 1], "kernel_constraint": null, "data_format": "channels_last", "activation": "linear", "filters": 32, "name": "conv2d_17", "dilation_rate": [1, 1], "padding": "same", "use_bias": true, "kernel_regularizer": null, "activity_regularizer": null, "kernel_size": [3, 3], "kernel_initializer": {"config": {"seed": null, "scale": 2.0, "distribution": "normal", "mode": "fan_in"}, "class_name": "VarianceScaling"}, "bias_constraint": null, "trainable": true, "bias_initializer": {"config": {}, "class_name": "Zeros"}, "bias_regularizer": null}, "class_name": "Conv2D", "name": "conv2d_17"}, {"inbound_nodes": [[["conv2d_17", 0, 0, {}]]], "config": {"trainable": true, "activation": "relu", "name": "activation_17"}, "class_name": "Activation", "name": "activation_17"}, {"inbound_nodes": [[["activation_17", 0, 0, {}]]], "config": {"strides": [1, 1], "kernel_constraint": null, "data_format": "channels_last", "activation": "linear", "filters": 32, "name": "conv2d_18", "dilation_rate": [1, 1], "padding": "same", "use_bias": true, "kernel_regularizer": null, "activity_regularizer": null, "kernel_size": [3, 3], "kernel_initializer": {"config": {"seed": null, "scale": 2.0, "distribution": "normal", "mode": "fan_in"}, "class_name": "VarianceScaling"}, "bias_constraint": null, "trainable": true, "bias_initializer": {"config": {}, "class_name": "Zeros"}, "bias_regularizer": null}, "class_name": "Conv2D", "name": "conv2d_18"}, {"inbound_nodes": [[["conv2d_18", 0, 0, {}]]], "config": {"trainable": true, "activation": "relu", "name": "activation_18"}, "class_name": "Activation", "name": "activation_18"}, {"inbound_nodes": [[["activation_18", 0, 0, {}]]], "config": {"strides": [1, 1], "kernel_constraint": null, "data_format": "channels_last", "activation": "sigmoid", "filters": 5, "name": "conv2d_19", "dilation_rate": [1, 1], "padding": "valid", "use_bias": true, "kernel_regularizer": null, "activity_regularizer": null, "kernel_size": [1, 1], "kernel_initializer": {"config": {"seed": null, "scale": 1.0, "distribution": "uniform", "mode": "fan_avg"}, "class_name": "VarianceScaling"}, "bias_constraint": null, "trainable": true, "bias_initializer": {"config": {}, "class_name": "Zeros"}, "bias_regularizer": null}, "class_name": "Conv2D", "name": "conv2d_19"}], "output_layers": [["conv2d_19", 0, 0]], "input_layers": [["input_1", 0, 0]], "name": "model_1"}, "class_name": "Model", "backend": "tensorflow"}